model.pt (torch, 754694 bytes, 14 tensors)

rnn.weight_ih_l0 f4 [384, 2]
000000 f9 b4 8d bb 2b 1f 4f 3b 28 f3 10 3a 75 23 12 3c
       -0.004324552 0.003160427 0.0005529397 0.008919586
000010 1a 1d 0e 3c 00 78 6e 3c 3d 59 6b 3b 50 18 0e 3c
       0.008673931 0.014554977 0.0035911344 0.008672789
000020 56 42 55 3b f2 a4 2f 3c 5b 33 86 3b 5b a2 6b 3c
       0.003254076 0.010720478 0.0040954775 0.01438197
000030 f6 d9 35 3c 14 c0 90 3c 37 1b 4f 3e 4d af ca 3e
       0.011099329 0.017669715 0.20225225 0.3958687
000040 79 55 7b 3b 57 81 0a 3c 85 45 74 3a 1b f3 a9 3b
       0.0038350506 0.008453689 0.00093182205 0.005186451
000050 2c 86 11 3b 90 9e 38 3c 0a 8c 31 3a 8c 86 d2 3b
       0.0022205217 0.011268273 0.00067728816 0.0064247306
000060 12 6c 68 3b 9d 13 13 3c ff ab ad 3a d8 d5 ed 3b
       0.0035464806 0.008976844 0.0013250111 0.007258158
000070 3c 97 dc 3a 7e 79 14 3c 44 a5 2a 3a 83 6c d0 3b
       0.0016829739 0.009062169 0.0006509612 0.006360592
000080 48 8b 6e bb 89 5e 0e 3a 20 24 4d 3b 60 27 5c 3c
       -0.0036398936 0.0005430957 0.003130205 0.013437122
000090 e1 bb 15 bb 89 66 6d 3b b8 9b a5 3a 43 2f d8 3b
       -0.002284758 0.0036224446 0.0012634909 0.006597431
0000a0 57 a7 c0 b9 05 e3 6b 3b 3b 17 52 ba 1f bf 8c 3b
       -0.00036745772 0.0035993468 -0.0008014326 0.0042952443
0000b0 ce c0 d4 ba 6e 02 99 3b 4d 97 95 3a 28 8b 1a 3c
       -0.0016231777 0.004669479 0.0011412889 0.0094325915
0000c0 8a e0 2a bb 6d 8b e3 3b 55 bf e6 ba 4b 37 e7 3b
       -0.0026073777 0.006944111 -0.0017604629 0.007056152
0000d0 7e 9b b2 3b 49 59 42 3c 46 1c 2f 3a 69 78 b6 3b
       0.005450665 0.011862108 0.0006679933 0.005568553
0000e0 3d 48 d0 38 56 3f ca 3b 27 3f 14 b9 b0 85 82 3b
       9.931668e-05 0.006172101 -0.00014137906 0.003983222
0000f0 04 ba f4 3a 38 22 f4 3b a5 42 a3 3b 7e 54 50 3c
       0.001867116 0.0074503683 0.00498231 0.012715457
000100 5e ab 83 39 be 10 0f 3c 39 58 48 3a 8a 9e ac 3b
       0.00025113946 0.008732019 0.0007642541 0.0052679228
000110 cf 29 fc 3b 48 67 37 3c e2 b7 2d bb 0c cf 85 39
       0.0076954137 0.011194058 -0.0026507308 0.00025522
000120 ad e7 a2 ba 4d 52 83 3b 1d 64 cb 3b aa 6a 9d 3c
       -0.0012428664 0.0040076138 0.006207003 0.0192159
000130 fc a0 a2 3b 7b a8 5f 3c 3f c9 15 bb 08 05 e3 3b
       0.0049630385 0.013651009 -0.0022855548 0.00692809
000140 c5 54 c3 3b fa e7 18 3c 97 8c 4c 3b cd 8f 58 3c
       0.005961033 0.009332651 0.0031211728 0.0132178785
000150 94 d4 18 3a 1d 72 ee 3b c1 06 d3 3a d0 b0 84 3b
       0.00058300165 0.007276787 0.0016100035 0.004049398
000160 0a a7 73 3b c8 fc 39 3c be 29 32 3b fa 09 1a 3c
       0.003717842 0.011351772 0.0027185525 0.009401793
000170 4f 44 8c ba 13 8e ab 3b f1 1e 04 bb 97 ab 40 3b
       -0.001070151 0.0052354424 -0.0020160044 0.002939915
000180 eb 9e e7 ba 27 d2 97 3b 42 46 04 bb 6f 39 dc 3b
       -0.0017671263 0.0046332064 -0.0020183478 0.006720714
000190 cb 15 cf ba fb 9f d7 3b c4 02 ab b8 d6 d5 f9 3b
       -0.0015799341 0.0065803505 -8.1544305e-05 0.007624368
0001a0 0c 9f 0c bb e7 5e d0 3b a2 28 84 b9 55 d8 12 3c
       -0.0021457104 0.0063589695 -0.00025207276 0.00896271
0001b0 e7 93 4c ba 9e db e5 3b b6 4e 12 3b fb b1 04 3c
       -0.00078040216 0.007014706 0.0022324747 0.0080990745
0001c0 59 4f 17 3c d7 6f 8b 3c ee 22 65 3a 8b 0a e9 3b
       0.009235227 0.017021103 0.00087408617 0.0071118525
0001d0 ce f5 5f b7 b8 b7 9e 3b 1f 87 c7 ba 3e 18 99 3b
       -1.3349067e-05 0.0048436783 -0.0015222764 0.0046720793
0001e0 59 3a ea ba 4c c2 b8 3b bb c0 42 ba 19 e4 e9 3b
       -0.0017870172 0.0056383964 -0.0007429232 0.007137787
0001f0 3b db 1d 3a 3e a2 d4 3b 6d 05 14 bb 66 0b ae 3b
       0.00060217426 0.0064890673 -0.0022586242 0.0053114174
000200 4e eb b9 ba 4d d5 96 3b 11 30 54 ba 9c 38 aa 3b
       -0.0014184506 0.004603064 -0.00080943207 0.0051947366
000210 35 ed de 3b ee 95 6b 3c e4 b6 db 3a 66 eb e7 3b
       0.0068031796 0.014379008 0.001676288 0.007077622
000220 31 e7 33 3b 65 d1 03 3c ae e9 37 39 31 91 6c 3b
       0.0027451033 0.008045529 0.00017539292 0.0036097283
000230 64 fb 84 38 69 e8 50 3c a6 fd c4 3b 78 19 5f 3c
       6.341076e-05 0.012750723 0.0060116826 0.013616912
000240 66 66 3b 3a 70 f0 b2 3b fa 31 02 bb cf 84 dc 39
       0.00071487424 0.0054607913 -0.0019866214 0.0004206062
000250 59 6f 76 3b 12 77 10 3c 5a 4c 84 39 87 c6 3d 3b
       0.003760299 0.008817451 0.00025233888 0.0028957443
000260 b3 79 6b 3b f5 06 1f 3c c5 86 b7 3b 41 0b 43 3c
       0.0035930693 0.0097062485 0.0056007826 0.011904539
000270 ea fd 52 b8 cd 53 18 3c af 29 0a 3b f5 7c c1 3b
       -5.0304378e-05 0.009297323 0.0021081974 0.0059047886
000280 fd af a9 3b a0 ca 5e 3c d5 af 4f 3a 8a fe 13 3c
       0.00517845 0.013598114 0.00079226244 0.009032855
000290 1b 65 a1 3b 51 53 04 3c 20 f6 87 3a 5c 6e eb 3b
       0.004925383 0.008076505 0.0010373034 0.0071847867
0002a0 dd 44 0f 36 91 a6 f9 3b 96 47 65 bb 56 e8 71 3b
       2.1348744e-06 0.007618733 -0.0034985295 0.0036912165
0002b0 dd f0 63 bb 71 d1 7e 3a b5 58 2b 3c 78 73 99 3c
       -0.0034781017 0.000972054 0.010458161 0.018731818
0002c0 fd 89 16 3b c6 ac 0b 3c d8 3c 77 bb cd a4 aa 3b
       0.002297043 0.008525079 -0.0037725475 0.005207634
0002d0 e2 c9 88 3b e1 f5 19 3c 07 b7 39 3e ce a1 a1 3e
       0.004174457 0.009397001 0.18136226 0.3156876
0002e0 5c 39 4f 3b d8 10 cc 3b 72 f6 53 bb fc 21 1f 3b
       0.0031619882 0.006227594 -0.0032342938 0.002428173
0002f0 2f fb 46 3b 0e ff 0c 3c 68 a7 dd ba 4f 1c 9a 3b
       0.003036212 0.008605732 -0.0016910853 0.0047030817
000300 3f bf 1a bc 7c 2e a1 bb 24 af b3 bb 50 35 0b 37
       -0.009445011 -0.0049188714 -0.005483525 8.297458e-06
000310 cc e4 bd 3a 94 66 3a 3b b6 a0 3f ba dc f3 d3 3a
       0.0014487742 0.002844249 -0.00073100196 0.0016170698
000320 45 6e f8 ba 41 33 0b 3b cb 36 0e bb 55 3c b4 3b
       -0.0018953761 0.0021240267 -0.002170014 0.005500356
000330 3a 02 03 3c cb f6 50 3c 9f ad 1d bd eb 50 9b bd
       0.007996136 0.0127541525 -0.038495656 -0.07583793
000340 29 46 c5 b8 2c 89 d6 3a dd 42 53 bb 55 bb bc ba
       -9.4067604e-05 0.0016367785 -0.0032235899 -0.0014399091
000350 26 36 40 bb ba 18 2a 3b 15 a5 b1 bb 46 c6 69 bb
       -0.002932915 0.002595468 -0.0054212906 -0.0035671159
000360 24 55 26 bb 33 89 87 ba 6d 0f ba bb fb f6 94 bb
       -0.0025380338 -0.0010340571 -0.0056781084 -0.004546044
000370 a5 d0 ef ba ba c5 24 3b bd e5 90 bb 82 8d ad ba
       -0.0018296434 0.0025142268 -0.004421918 -0.0013241025
000380 aa c7 cf bb b9 e3 5d bb a0 3b ec b9 d4 ff 03 3c
       -0.0063409405 -0.0033857657 -0.00045057852 0.0080566
000390 f3 4f fd bb c3 80 a4 bb ce e9 84 bb 4d 9f 23 bb
       -0.007730478 -0.0050202324 -0.004056192 -0.0024966777
0003a0 2f aa 5c bb df f1 b7 ba 0c b5 9b bb 98 61 35 bb
       -0.0033670773 -0.0014033875 -0.004751807 -0.0027676579
0003b0 ae 16 ba bb 4a 43 03 bb 1b 0e 6e bb 2a 44 ec 3a
       -0.005678973 -0.002002912 -0.0036324325 0.0018025686
0003c0 03 f4 e1 bb 4a 9c 1f 3a 40 cc 0e bc b6 51 8b bb
       -0.0068955435 0.00060886575 -0.008715689 -0.004251684
0003d0 33 b4 1d 3a 0c 8f 89 3b b9 9c 86 bb 62 b4 20 bb
       0.00060159265 0.0041979607 -0.0041080383 -0.002452158
0003e0 fa a2 94 bb 8f 53 e5 ba 3f 6a 9b bb ce 59 71 bb
       -0.00453603 -0.0017496216 -0.00474289 -0.003682721
0003f0 af eb 4e bb ac 02 44 ba b3 32 46 39 35 87 8f 3b
       -0.0031573584 -0.0007477205 0.00018901638 0.0043801316

rnn.weight_hh_l0 f4 [384, 96]
000000 eb b1 68 bb 22 f3 59 3a 21 cc 2e bb 8f b9 9e 3b
       -0.0035506438 0.00083141227 -0.0026671963 0.0048438977
000010 59 b6 82 bb c7 25 33 bb 8f 5e b6 3b 05 03 05 3b
       -0.0039890227 -0.002733575 0.0055654715 0.002029599
000020 99 df 43 3b 63 2b 32 3b e4 de 14 bb 16 24 03 3b
       0.0029887913 0.0027186505 -0.002271586 0.0020010523
000030 61 7c 84 3b 66 f7 67 3b 4b df 58 bb 67 5f 35 bb
       0.0040431474 0.0035395264 -0.0033092077 -0.0027675272
000040 24 e0 34 3b 8a c0 14 3b cb da 55 bb ee 86 ec 3a
       0.0027599419 0.002269777 -0.0032631631 0.0018045583
000050 01 9a 33 bb 23 d2 fb 3a 58 ac 62 3a cf d1 90 bb
       -0.0027405026 0.0019212406 0.0008646897 -0.0044195424
000060 74 03 13 3b 97 65 4f 3b 44 41 59 3b 8c 4a f4 3a
       0.0022432478 0.0031646246 0.0033150474 0.0018637939
000070 37 c7 52 3b 78 d3 8c ba bd a2 7e bb ff 06 94 3b
       0.0032162198 -0.0010744175 -0.0038854324 0.0045174356
000080 35 d0 31 bb 5f e1 77 3b 47 3b 74 3b 7d 8b 09 bb
       -0.0027132158 0.003782354 0.0037266777 -0.0020987683
000090 4e e8 39 bb 6b bd 4d bb a6 d9 b9 bb b8 73 24 bb
       -0.0028367224 -0.003139342 -0.0056716977 -0.0025093388
0000a0 a1 67 77 bb e8 b1 08 3b 43 d7 fd ba 0d 8e ef ba
       -0.0037750977 0.0020857994 -0.0019366521 -0.0018276587
0000b0 81 51 bf bb 14 d9 17 3b d5 25 f2 3a b0 e1 8c 3a
       -0.0058385734 0.002317016 0.001847441 0.0010748412
0000c0 a2 2f 17 bb 93 83 0b 3a c1 f1 08 3b 51 a5 a8 bb
       -0.0023069163 0.0005322035 0.002089605 -0.0051466604
0000d0 7a f2 3c bb d3 aa 9b ba c4 55 14 bb ac 38 0b 3b
       -0.002883105 -0.0011876471 -0.0022634128 0.0021243496
0000e0 ed f4 ba bb d0 f4 82 3b c3 e5 85 3b 45 ec 73 ba
       -0.005705467 0.003996469 0.0040862276 -0.0009304921
0000f0 89 04 3e 3b 6c 06 95 3a 9c e5 8c bb 3c 1c 14 3b
       0.0028994402 0.0011369712 -0.0042998325 0.0022599837
000100 07 ba 37 bb 7c d0 64 3b d1 a7 62 bb f5 39 14 bb
       -0.0028034465 0.0034914305 -0.003458489 -0.0022617553
000110 0a 9a cb ba 10 2e e4 ba 1d 0a 9e bb 9b 05 8b bb
       -0.0015533578 -0.0017408747 -0.004822983 -0.0042426116
000120 05 33 e5 ba be 1b 9c 3a 75 1e 65 bb de 74 89 bb
       -0.0017486518 0.0011910123 -0.003496078 -0.00419484
000130 53 58 fe 3a 8e 6a 65 3b 57 3a 7c 3b cc a2 60 3b
       0.0019404985 0.0035006138 0.0038486922 0.0034276722
000140 32 b9 8c bb e2 7a 1f bb 77 82 4a bb b5 51 e9 ba
       -0.004294538 -0.0024334718 -0.0030900517 -0.001780084
000150 f5 77 fa 3a 06 cd 15 3a 36 42 0d bb 37 df aa bb
       0.0019109236 0.000571445 -0.0021554357 -0.0052145976
000160 61 bf 89 bb 3c ac 4b bb 0b 81 2f 3b 7c 2c 96 ba
       -0.0042037223 -0.0031078001 0.0026779796 -0.0011457349
000170 56 b8 37 3b 3a 93 c2 3a 5b 94 6b 3b a9 59 15 bb
       0.0028033457 0.0014844902 0.003594658 -0.0022789037
000180 52 84 23 b9 fe 19 26 3a f3 09 a6 b9 8c c6 45 b7
       -0.00015594185 0.00063362706 -0.000316694 -1.1788343e-05
000190 c1 f0 1d b9 5b 1b 02 ba 37 37 4b 39 80 85 cd 39
       -0.00015062375 -0.0004963183 0.00019380158 0.00039200112
0001a0 64 44 74 38 23 17 95 39 5e cb be b9 2c 1e b7 39
       5.8237827e-05 0.00028436733 -0.00036391144 0.0003492696
0001b0 67 9d 1a 39 e8 3b 06 39 b2 5e 28 b9 a1 1d a2 b9
       0.00014745221 0.00012801553 -0.00016057005 -0.00030921123
0001c0 4c 8d 2b 39 03 de bd 39 a3 1e f6 b8 90 35 c9 39
       0.00016360468 0.000362143 -0.000117359006 0.00038377615
0001d0 1e d2 ce b8 01 c4 61 38 3d a1 30 39 bb 35 d4 b8
       -9.861983e-05 5.3826723e-05 0.00016844734 -0.00010118956
0001e0 dd af 76 39 6e a6 8d 39 54 19 18 39 6d 57 bc 39
       0.00023525902 0.00027017616 0.00014505285 0.00035923292
0001f0 24 5e 63 b6 dd ad 68 b8 80 c3 f6 36 81 82 b8 39
       -3.3880433e-06 -5.5475033e-05 7.3541305e-06 0.00035192448
000200 5f 34 3b b8 b0 83 28 39 0f 49 e7 38 ad e6 3b b9
       -4.463305e-05 0.00016070786 0.000110285466 -0.00017919643
000210 a4 48 e2 b7 30 0e 2d ba 91 be ef b8 bc 14 3b b9
       -2.6975125e-05 -0.00066015404 -0.00011431904 -0.00017841434
000220 8d 82 ec b5 ad d7 33 3a 6e 99 9a b8 fb 80 05 b8
       -1.7621365e-06 0.00068604463 -7.371871e-05 -3.1829793e-05
000230 d8 24 87 37 ef fb 3d b8 be 0f ca 38 8e fb 5c 39
       1.611041e-05 -4.5295743e-05 9.635043e-05 0.00021074546
000240 bb bc 55 b7 26 0a 82 38 48 e6 7e 39 5e 9f 3d b9
       -1.2739732e-05 6.200773e-05 0.00024309114 -0.00018083813
000250 46 50 02 b9 ba 56 cd 39 fd f2 65 b9 5d dd 85 39
       -0.0001242767 0.00039165263 -0.00021929662 0.00025532665
000260 c6 8c 96 b7 fe 5a b5 b8 b3 f3 a4 38 80 bc f8 b9
       -1.7946946e-05 -8.647701e-05 7.865522e-05 -0.0004744269
000270 4d 1e ee 38 ac 87 25 39 41 d4 e1 b8 e6 5e 2d 39
       0.00011354368 0.00015786168 -0.000107683714 0.00016533918
000280 7e b8 96 b9 81 88 6b 36 80 09 91 b8 dd c9 01 b9
       -0.00028747687 3.5097185e-06 -6.915908e-05 -0.00012377599
000290 f3 05 98 b9 fb 92 71 b9 11 f8 3c b9 b7 e8 bd 37
       -0.00028996132 -0.00023038306 -0.00018021489 2.2638922e-05
0002a0 2e 36 78 b9 02 cd 55 39 47 24 2e b9 fa 5c 37 b9
       -0.00023671307 0.00020389634 -0.00016607447 -0.00017486876
0002b0 ff 4b 2b 39 21 cb 4d 39 f3 09 55 37 84 16 73 38
       0.00016336142 0.00019625995 1.2698106e-05 5.7956684e-05
0002c0 04 14 0a b8 91 e3 bf b9 9b 01 84 38 e0 37 5f ba
       -3.2920405e-05 -0.0003659991 6.2945495e-05 -0.0008515101
0002d0 d0 db da 39 49 7e d8 39 f8 ff 4d b7 2e e8 84 b9
       0.00041743973 0.0004129282 -1.227855e-05 -0.0002534999
0002e0 08 ef 21 38 23 b1 87 b9 22 7a 61 39 bd a2 52 b9
       3.8608006e-05 -0.00025881184 0.0002150317 -0.00020087785
0002f0 e6 91 10 3a 3a a4 57 39 c5 e4 9f 39 36 94 ed b8
       0.00055149046 0.00020565177 0.0003049729 -0.00011328647
000300 43 cf 16 3b 99 ae a7 b9 aa 0b 06 3b 14 39 77 bb
       0.0023011721 -0.00031982808 0.002045373 -0.003772323
000310 b0 af 46 3b cb f8 bb 3a 8b 91 87 bb ed fc 11 3b
       0.003031712 0.0014341114 -0.004137223 0.0022276
000320 48 ff 1a bb 10 c9 02 bb ac e5 b2 3a 2a cf c4 ba
       -0.0023650695 -0.0019956268 0.001364877 -0.0015015353
000330 52 7e 54 bb 5e 7a 29 bb d1 ff 24 3b 5c ac da 3a
       -0.0032423926 -0.002586029 0.0025176893 0.0016683447
000340 e6 44 fe ba 38 7f ab ba 75 ca 1e 3b 92 02 9f ba
       -0.0019399195 -0.0013084179 0.002422956 -0.0012131503
000350 9a 8d 09 3b 7d ac 9d ba 05 5b 01 ba d5 29 5b 3b
       0.0020988942 -0.0012029555 -0.00049345224 0.0033441682
000360 1a f4 b8 ba fc 13 09 bb 42 40 36 bb 0f d3 90 ba
       -0.0014110834 -0.0020916453 -0.0027809297 -0.0011049228
000370 44 9a 22 bb b6 e3 6f 3a 52 56 57 3b 40 2b 4b bb
       -0.0024811188 0.0009151058 0.0032857847 -0.003100112
000380 77 e8 e8 3a 07 82 2f bb d9 29 37 bb c1 e5 c1 3a
       0.0017769475 -0.0026780383 -0.0027948527 0.0014793203
000390 3c f8 0f 3b d4 d1 de 3a eb ee 87 3b de ab e1 3a
       0.0021968028 0.001699979 0.0041483543 0.0017217358
0003a0 21 fa 2b 3b 34 34 39 ba 17 76 8a 3a e4 ab d8 3a
       0.0026241618 -0.0007064969 0.0010563758 0.001653072
0003b0 2b 58 96 3b 7c b0 d5 ba ea 99 c8 ba ce c4 15 ba
       0.004588147 -0.0016303207 -0.0015304659 -0.0005713225
0003c0 1c 13 ee 3a bf 77 f7 b6 9b 0c c3 ba db 98 6b 3b
       0.0018163654 -7.375114e-06 -0.0014881076 0.0035949263
0003d0 c5 32 05 3b 8b 96 95 3a aa 00 d3 3a 60 62 c0 ba
       0.002032445 0.0011412663 0.001609822 -0.0014677756
0003e0 ea 87 8f 3b 36 b1 56 bb 70 dc 54 bb c0 c7 83 39
       0.004380216 -0.0032759435 -0.0032480024 0.00025135092
0003f0 0e f7 01 bb bd 3d 2f ba 22 4d 62 3b a8 64 d5 ba
       -0.0019831094 -0.000668492 0.0034530838 -0.0016280608

rnn.bias_ih_l0 f4 [384]
000000 45 95 18 3c 95 f0 45 3c 93 67 a6 3c a1 70 61 3c
       0.009312932 0.012081285 0.02031306 0.013759763
000010 17 98 8c 3c fb 9e a4 3c 70 33 ab 3c 69 89 1e 3f
       0.017162366 0.020095339 0.02089855 0.6192842
000020 2f c9 3f 3c ac 33 df 3b fc 86 87 3c 8f 87 21 3c
       0.011705681 0.0068115797 0.016543858 0.00985898
000030 a9 74 62 3c eb 13 66 3c 11 53 47 3c 77 f3 3a 3c
       0.013821759 0.014042835 0.012165801 0.011410586
000040 99 ab 9d 3b 8a 3d 8f 3c 7f b6 17 3c b5 a9 2f 3c
       0.004811716 0.017485399 0.009259819 0.010721614
000050 5d e0 dd 3b db e8 f6 3b d5 42 f3 3b e7 49 70 3c
       0.006771131 0.0075350828 0.0074237385 0.014666057
000060 92 a7 2d 3c d0 2d 66 3c ad f7 7f 3c 0c 7a 2e 3c
       0.010599034 0.0140490085 0.015623015 0.010649215
000070 31 e7 0e 3c 6c f5 e4 3b ca 06 40 3c 29 bb a3 3c
       0.0087221125 0.0069872644 0.011720369 0.019986706
000080 83 98 4b 3c 00 25 27 3c 83 d7 61 3c ef c8 9b 3b
       0.012426498 0.010201693 0.013784292 0.0047541778
000090 b5 32 f3 3b e7 59 dc 3c 09 15 99 3c b2 fb 49 3c
       0.0074218162 0.026898338 0.018686788 0.012328075
0000a0 19 e9 60 3c c5 28 98 3c 11 d7 3c 3c a5 48 ca 3b
       0.01372745 0.018574128 0.011525885 0.0061732107
0000b0 3e fd 6c 3c e2 12 41 3c 00 be f0 3b d0 21 f4 3b
       0.0144646745 0.011784287 0.0073468685 0.00745032
0000c0 64 70 fc 3b ea 1b 16 3c 63 f0 45 3c b3 04 59 3c
       0.0077038277 0.009161929 0.012081238 0.013245749
0000d0 66 76 16 3c c2 34 4f 3c 94 54 37 3c 81 87 79 3c
       0.009183502 0.012646856 0.011189599 0.015230061
0000e0 23 0d ae 3c d8 d9 42 3c 43 27 f8 3b 2b 60 39 3c
       0.021246498 0.011892758 0.0075730397 0.011314432
0000f0 61 f9 36 3c bc b1 24 3c 95 e3 24 3c 02 83 1b 3c
       0.011167855 0.010052141 0.010064025 0.009491684
000100 4f 80 35 3c 12 78 1f 3c 66 79 9a 3c aa 34 42 3c
       0.011077954 0.009733217 0.018856715 0.011853376
000110 6e 4b 6c 3c f0 64 d8 3b 57 73 8e 3c 80 93 8d 3c
       0.014422281 0.0066038296 0.017388983 0.017282248
000120 61 5f 2b 3c e3 e3 9c 3b 96 bd 5a 3c bb 77 31 3c
       0.010459752 0.0047879084 0.013350865 0.010831769
000130 9b 58 65 3c 2e 69 90 3c 4d 94 65 3c 4a 84 fc 3b
       0.013998176 0.017628279 0.014012408 0.0077062
000140 32 b4 9a 3c 69 f6 70 3c 01 ca 60 3c cf ca 49 3c
       0.018884752 0.014707186 0.0137200365 0.01231642
000150 72 35 68 3c b8 47 0a 3c d0 19 70 3b 4b 58 cd 3c
       0.014172899 0.008439951 0.003663648 0.025066515
000160 1f 39 55 3c 0c b9 3f 3c e7 04 7f 3c 69 0f f4 3e
       0.013014107 0.011701833 0.015565134 0.47668007
000170 43 d8 56 3c b8 c5 8e 3b 18 58 51 3c f9 3b 0f 3c
       0.013113084 0.004357066 0.012777351 0.008742326
000180 4c 6f 82 bb 01 60 ae ba fb a3 6e 3b 7b 5f 24 3b
       -0.003980553 -0.0013303758 0.0036413658 0.0025081325
000190 9e 75 5c 3b 76 09 ca 3b 63 6d 4f 3c d4 9e b6 bd
       0.0033639441 0.0061656786 0.012660357 -0.08917013
0001a0 56 3d 45 39 df 7a 8c bb b2 14 3b 3b 00 87 97 bb
       0.00018810233 -0.0042871083 0.002854627 -0.0046242476
0001b0 0d 30 85 ba b4 ca 82 bb 0a 35 02 3b 1d 12 53 ba
       -0.0010161415 -0.0039914493 0.001986804 -0.00080517103
0001c0 bb 9c 3c bb 0c 27 05 3c 82 90 98 bb 1a ef 61 bb
       -0.0028779942 0.008126985 -0.0046558985 -0.003447479
0001d0 e0 89 8e ba 02 11 59 bb 6e c8 59 bb f5 ea 1f 3b
       -0.001087483 -0.003312171 -0.0033231038 0.002440152
0001e0 4f ab b0 38 e4 89 67 bb f4 2b 58 3b ca 14 1b bb
       8.424243e-05 -0.0035329992 0.0032985182 -0.0023663514
0001f0 72 88 7e bb ec db 98 bb ba 21 93 ba 51 7f fd 3b
       -0.0038838652 -0.0046648886 -0.0011225261 0.0077361246
000200 1d da d0 39 33 69 3a ba 65 67 e0 b9 bb ce cb bb
       0.0003983536 -0.0007111013 -0.00042801644 -0.0062197126
000210 7a ef 88 bb 69 f6 01 3c 58 06 bd 3b 1b d7 dd ba
       -0.0041789385 0.007932284 0.0057685785 -0.0016925068
000220 c4 0f b3 3a a6 5e ae 3b 63 36 b2 3a 1f 39 46 bb
       0.0013661315 0.0053213416 0.0013596531 -0.003024645
000230 04 0a db 3a 2a b8 f2 3a b6 cb d7 bb 30 eb d4 bb
       0.0016711359 0.001851802 -0.0065855635 -0.006497763
000240 6f e9 8b bb a9 9d 8b 3a 35 68 86 bb 3c 9c f8 ba
       -0.004269771 0.0010651845 -0.004101778 -0.001896746
000250 bd 7f 7d ba 28 50 36 ba 08 57 85 bb f1 09 76 3b
       -0.00096702186 -0.0006954693 -0.004069213 0.0037542547
000260 4d ca a3 3b af da 89 bb 72 ab 9f bb 9e b8 30 bb
       0.0049984814 -0.0042069773 -0.004872733 -0.002696551
000270 99 97 21 bb 54 3e 4d ba 69 e8 52 bb 83 22 54 bb
       -0.002465701 -0.0007829417 -0.0032181984 -0.0032369203
000280 e9 93 5a bb aa 25 e6 bb 7e 39 dc 3b c6 75 b2 bb
       -0.0033352321 -0.007023533 0.006720721 -0.0054461686
000290 32 dd 2b 3b c7 21 ad bb 63 af eb 3b 2f 4d ca 3a
       0.0026224372 -0.0052835676 0.0071925386 0.001543438
0002a0 43 e4 9c b9 48 03 e6 bb 59 e1 a5 ba bb 60 79 bb
       -0.00029924707 -0.007019434 -0.001265566 -0.003805204
0002b0 72 eb bf ba ca a8 8e 39 1b 07 a9 3b 05 9e 53 bb
       -0.0014642312 0.00027210108 0.0051583177 -0.0032290232
0002c0 6d d7 a5 3a 49 8a 3a ba 05 ef c6 ba 3e 03 57 bb
       0.0012652703 -0.0007115943 -0.0015177435 -0.003280833
0002d0 f9 40 51 bb 45 91 78 bb 27 2f f9 bb ee 21 37 3c
       -0.0031929596 -0.0037928384 -0.007604498 0.011177523
0002e0 ba 2f 5d bb 37 11 06 bb 2b b4 82 b9 b1 4a b8 bd
       -0.003375037 -0.0020457038 -0.00024929768 -0.08998621
0002f0 9c cc 40 b8 a6 85 c5 bb a3 81 eb ba 7f 87 c3 bb
       -4.5966925e-05 -0.006027895 -0.0017967712 -0.00596708
000300 a5 ce f0 bc 50 b4 15 3d b7 2c e9 bc db 85 a7 3c
       -0.02939541 0.036548913 -0.028463705 0.02044957
000310 fd 08 ce bc b6 cf 03 bd 4a 0b 89 3c c9 69 1d be
       -0.02515077 -0.03218051 0.016729016 -0.15372385
000320 4c ff ec 3c af 55 a9 3c 02 12 05 bd 04 99 f2 3c
       0.028930329 0.02067074 -0.032487877 0.02961398
000330 f5 35 ae 3c d8 6a cf 3c 6d 88 cf bc 86 14 00 bd
       0.021265963 0.025319502 -0.025333608 -0.031269573
000340 ee 8c 0b 3d a7 ba 11 3d c6 81 b8 bc 05 71 fb 3c
       0.034069948 0.035578396 -0.022522818 0.03069354
000350 98 95 be bc e5 0a 06 3d d8 22 03 3d 7c 71 a9 bc
       -0.023264691 0.032725234 0.03201565 -0.020683996
000360 82 ef 04 3d cd be e4 3c 34 42 d0 3c 1c 2b 0b 3d
       0.032454975 0.027923012 0.025422193 0.03397666
000370 34 73 b5 3c e0 f9 ef bc 19 83 bf bc 54 c6 d8 3c
       0.02214966 -0.029293954 -0.023377942 0.026461758
000380 1d 66 05 bd 92 6d ae 3c 37 73 b3 3c e9 86 ea bc
       -0.032568086 0.021292482 0.021905525 -0.028628783
000390 24 f8 bb bc c8 20 1e bd 78 7d a6 bc bc ad e5 bc
       -0.022945471 -0.03860548 -0.0203235 -0.028036945
0003a0 23 d3 df bc 5d 7a 2b 3d 41 9e 0a bd 32 2d da bc
       -0.027322358 0.04186474 -0.03384233 -0.026632879
0003b0 a5 3a 52 bc f0 9a f2 3c e6 68 d4 3c 9d 4b 0b 3d
       -0.012831365 0.029614896 0.025928926 0.034007657
0003c0 d8 68 e0 bc e0 3e 1b 3d 7b d9 fc 3c bd c9 9b bc
       -0.027393743 0.03790176 0.030865422 -0.019017095
0003d0 94 08 d0 bc 57 6e 1c 3d ce f6 eb bc d2 68 f1 3c
       -0.025394715 0.038191166 -0.02880421 0.029468928
0003e0 51 fd 8c bc 04 b4 94 3c 60 33 93 3c 54 6f 1a bd
       -0.017210634 0.018152244 0.017968833 -0.037703827
0003f0 46 90 03 3d 1f 0e 0a 3d 34 97 9b bc 75 4a d7 3c
       0.03212001 0.033704873 -0.018992998 0.026280621

rnn.bias_hh_l0 f4 [384]
000000 45 95 18 3c 95 f0 45 3c 93 67 a6 3c a1 70 61 3c
       0.009312932 0.012081285 0.02031306 0.013759763
000010 17 98 8c 3c fb 9e a4 3c 70 33 ab 3c 69 89 1e 3f
       0.017162366 0.020095339 0.02089855 0.6192842
000020 2f c9 3f 3c ac 33 df 3b fc 86 87 3c 8f 87 21 3c
       0.011705681 0.0068115797 0.016543858 0.00985898
000030 a9 74 62 3c eb 13 66 3c 11 53 47 3c 77 f3 3a 3c
       0.013821759 0.014042835 0.012165801 0.011410586
000040 99 ab 9d 3b 8a 3d 8f 3c 7f b6 17 3c b5 a9 2f 3c
       0.004811716 0.017485399 0.009259819 0.010721614
000050 5d e0 dd 3b db e8 f6 3b d5 42 f3 3b e7 49 70 3c
       0.006771131 0.0075350828 0.0074237385 0.014666057
000060 92 a7 2d 3c d0 2d 66 3c ad f7 7f 3c 0c 7a 2e 3c
       0.010599034 0.0140490085 0.015623015 0.010649215
000070 31 e7 0e 3c 6c f5 e4 3b ca 06 40 3c 29 bb a3 3c
       0.0087221125 0.0069872644 0.011720369 0.019986706
000080 83 98 4b 3c 00 25 27 3c 83 d7 61 3c ef c8 9b 3b
       0.012426498 0.010201693 0.013784292 0.0047541778
000090 b5 32 f3 3b e7 59 dc 3c 09 15 99 3c b2 fb 49 3c
       0.0074218162 0.026898338 0.018686788 0.012328075
0000a0 19 e9 60 3c c5 28 98 3c 11 d7 3c 3c a5 48 ca 3b
       0.01372745 0.018574128 0.011525885 0.0061732107
0000b0 3e fd 6c 3c e2 12 41 3c 00 be f0 3b d0 21 f4 3b
       0.0144646745 0.011784287 0.0073468685 0.00745032
0000c0 64 70 fc 3b ea 1b 16 3c 63 f0 45 3c b3 04 59 3c
       0.0077038277 0.009161929 0.012081238 0.013245749
0000d0 66 76 16 3c c2 34 4f 3c 94 54 37 3c 81 87 79 3c
       0.009183502 0.012646856 0.011189599 0.015230061
0000e0 23 0d ae 3c d8 d9 42 3c 43 27 f8 3b 2b 60 39 3c
       0.021246498 0.011892758 0.0075730397 0.011314432
0000f0 61 f9 36 3c bc b1 24 3c 95 e3 24 3c 02 83 1b 3c
       0.011167855 0.010052141 0.010064025 0.009491684
000100 4f 80 35 3c 12 78 1f 3c 66 79 9a 3c aa 34 42 3c
       0.011077954 0.009733217 0.018856715 0.011853376
000110 6e 4b 6c 3c f0 64 d8 3b 57 73 8e 3c 80 93 8d 3c
       0.014422281 0.0066038296 0.017388983 0.017282248
000120 61 5f 2b 3c e3 e3 9c 3b 96 bd 5a 3c bb 77 31 3c
       0.010459752 0.0047879084 0.013350865 0.010831769
000130 9b 58 65 3c 2e 69 90 3c 4d 94 65 3c 4a 84 fc 3b
       0.013998176 0.017628279 0.014012408 0.0077062
000140 32 b4 9a 3c 69 f6 70 3c 01 ca 60 3c cf ca 49 3c
       0.018884752 0.014707186 0.0137200365 0.01231642
000150 72 35 68 3c b8 47 0a 3c d0 19 70 3b 4b 58 cd 3c
       0.014172899 0.008439951 0.003663648 0.025066515
000160 1f 39 55 3c 0c b9 3f 3c e7 04 7f 3c 69 0f f4 3e
       0.013014107 0.011701833 0.015565134 0.47668007
000170 43 d8 56 3c b8 c5 8e 3b 18 58 51 3c f9 3b 0f 3c
       0.013113084 0.004357066 0.012777351 0.008742326
000180 4c 6f 82 bb 01 60 ae ba fb a3 6e 3b 7b 5f 24 3b
       -0.003980553 -0.0013303758 0.0036413658 0.0025081325
000190 9e 75 5c 3b 76 09 ca 3b 63 6d 4f 3c d4 9e b6 bd
       0.0033639441 0.0061656786 0.012660357 -0.08917013
0001a0 56 3d 45 39 df 7a 8c bb b2 14 3b 3b 00 87 97 bb
       0.00018810233 -0.0042871083 0.002854627 -0.0046242476
0001b0 0d 30 85 ba b4 ca 82 bb 0a 35 02 3b 1d 12 53 ba
       -0.0010161415 -0.0039914493 0.001986804 -0.00080517103
0001c0 bb 9c 3c bb 0c 27 05 3c 82 90 98 bb 1a ef 61 bb
       -0.0028779942 0.008126985 -0.0046558985 -0.003447479
0001d0 e0 89 8e ba 02 11 59 bb 6e c8 59 bb f5 ea 1f 3b
       -0.001087483 -0.003312171 -0.0033231038 0.002440152
0001e0 4f ab b0 38 e4 89 67 bb f4 2b 58 3b ca 14 1b bb
       8.424243e-05 -0.0035329992 0.0032985182 -0.0023663514
0001f0 72 88 7e bb ec db 98 bb ba 21 93 ba 51 7f fd 3b
       -0.0038838652 -0.0046648886 -0.0011225261 0.0077361246
000200 1d da d0 39 33 69 3a ba 65 67 e0 b9 bb ce cb bb
       0.0003983536 -0.0007111013 -0.00042801644 -0.0062197126
000210 7a ef 88 bb 69 f6 01 3c 58 06 bd 3b 1b d7 dd ba
       -0.0041789385 0.007932284 0.0057685785 -0.0016925068
000220 c4 0f b3 3a a6 5e ae 3b 63 36 b2 3a 1f 39 46 bb
       0.0013661315 0.0053213416 0.0013596531 -0.003024645
000230 04 0a db 3a 2a b8 f2 3a b6 cb d7 bb 30 eb d4 bb
       0.0016711359 0.001851802 -0.0065855635 -0.006497763
000240 6f e9 8b bb a9 9d 8b 3a 35 68 86 bb 3c 9c f8 ba
       -0.004269771 0.0010651845 -0.004101778 -0.001896746
000250 bd 7f 7d ba 28 50 36 ba 08 57 85 bb f1 09 76 3b
       -0.00096702186 -0.0006954693 -0.004069213 0.0037542547
000260 4d ca a3 3b af da 89 bb 72 ab 9f bb 9e b8 30 bb
       0.0049984814 -0.0042069773 -0.004872733 -0.002696551
000270 99 97 21 bb 54 3e 4d ba 69 e8 52 bb 83 22 54 bb
       -0.002465701 -0.0007829417 -0.0032181984 -0.0032369203
000280 e9 93 5a bb aa 25 e6 bb 7e 39 dc 3b c6 75 b2 bb
       -0.0033352321 -0.007023533 0.006720721 -0.0054461686
000290 32 dd 2b 3b c7 21 ad bb 63 af eb 3b 2f 4d ca 3a
       0.0026224372 -0.0052835676 0.0071925386 0.001543438
0002a0 43 e4 9c b9 48 03 e6 bb 59 e1 a5 ba bb 60 79 bb
       -0.00029924707 -0.007019434 -0.001265566 -0.003805204
0002b0 72 eb bf ba ca a8 8e 39 1b 07 a9 3b 05 9e 53 bb
       -0.0014642312 0.00027210108 0.0051583177 -0.0032290232
0002c0 6d d7 a5 3a 49 8a 3a ba 05 ef c6 ba 3e 03 57 bb
       0.0012652703 -0.0007115943 -0.0015177435 -0.003280833
0002d0 f9 40 51 bb 45 91 78 bb 27 2f f9 bb ee 21 37 3c
       -0.0031929596 -0.0037928384 -0.007604498 0.011177523
0002e0 ba 2f 5d bb 37 11 06 bb 2b b4 82 b9 b1 4a b8 bd
       -0.003375037 -0.0020457038 -0.00024929768 -0.08998621
0002f0 9c cc 40 b8 a6 85 c5 bb a3 81 eb ba 7f 87 c3 bb
       -4.5966925e-05 -0.006027895 -0.0017967712 -0.00596708
000300 b3 ce f0 bc d1 b3 15 3d 11 2d e9 bc f4 85 a7 3c
       -0.029395437 0.03654844 -0.028463872 0.020449616
000310 0f 09 ce bc b9 cf 03 bd b5 0a 89 3c ac e0 5c be
       -0.025150804 -0.03218052 0.016728738 -0.2157008
000320 fa fe ec 3c bf 55 a9 3c f2 11 05 bd 0c 99 f2 3c
       0.028930176 0.02067077 -0.032487817 0.029613994
000330 8c 35 ae 3c 35 6b cf 3c c4 89 cf bc 96 14 00 bd
       0.021265768 0.025319675 -0.025334246 -0.031269632
000340 f1 8c 0b 3d b5 ba 11 3d cd 81 b8 bc d9 71 fb 3c
       0.03406996 0.03557845 -0.022522831 0.030693935
000350 32 96 be bc ee 0a 06 3d c6 22 03 3d 3f 72 a9 bc
       -0.023264978 0.032725267 0.032015584 -0.02068436
000360 a9 ef 04 3d eb be e4 3c 1f 42 d0 3c 17 2b 0b 3d
       0.03245512 0.027923068 0.025422154 0.03397664
000370 55 73 b5 3c c4 f9 ef bc e5 82 bf bc 7b c6 d8 3c
       0.022149721 -0.029293902 -0.023377845 0.02646183
000380 44 66 05 bd 17 6e ae 3c 7a 72 b3 3c 63 86 ea bc
       -0.03256823 0.02129273 0.021905173 -0.028628534
000390 36 f8 bb bc a5 20 1e bd 7e 7d a6 bc 26 ad e5 bc
       -0.022945505 -0.03860535 -0.020323511 -0.028036665
0003a0 dd d3 df bc 58 7a 2b 3d 25 9e 0a bd 95 2d da bc
       -0.027322704 0.041864723 -0.033842225 -0.026633063
0003b0 7f 3a 52 bc fc 9a f2 3c 26 69 d4 3c 9b 4b 0b 3d
       -0.012831329 0.029614918 0.025929045 0.03400765
0003c0 be 68 e0 bc aa 3f 1b 3d 89 da fc 3c 40 ca 9b bc
       -0.027393695 0.03790251 0.030865924 -0.019017339
0003d0 ca 08 d0 bc 5e 6e 1c 3d 01 f7 eb bc ca 68 f1 3c
       -0.025394816 0.03819119 -0.028804304 0.029468913
0003e0 53 fd 8c bc 3b b4 94 3c 5c 33 93 3c c4 6f 1a bd
       -0.017210638 0.018152347 0.017968826 -0.037704244
0003f0 45 90 03 3d 26 0e 0a 3d 34 97 9b bc 81 4a d7 3c
       0.032120008 0.0337049 -0.018992998 0.026280643

rnn.weight_ih_l1 f4 [384, 96]
000000 2c ce b9 ba 2a 4c be 39 7a 0f b1 3a d5 96 a3 39
       -0.0014175824 0.0003629637 0.0013508641 0.0003120216
000010 51 eb b2 37 f3 7f b7 b9 5d fa bd ba 9f 3e 06 3b
       2.1328831e-05 -0.0003499981 -0.001449417 0.0020484102
000020 45 92 08 39 1f 33 1f b9 3e df 33 ba c0 88 f8 b7
       0.0001302446 -0.00015182466 -0.0006861574 -2.9627583e-05
000030 5f 97 79 ba 85 cb 2a ba a6 cc 04 3a 4a 85 0b 39
       -0.0009521152 -0.0006515312 0.00050658954 0.00013305727
000040 12 02 38 3a b1 f6 06 3a 0e 4a 8d 39 b7 ba fa b9
       0.00070193515 0.0005148454 0.0002694879 -0.0004782283
000050 6e 53 82 39 67 e4 93 3a df 06 11 39 3d c0 c0 38
       0.00024857692 0.0011283279 0.00013830837 9.1910806e-05
000060 da cd 44 3a 85 9e 21 b6 52 d4 8d 3a 53 10 49 3a
       0.0007507481 -2.408314e-06 0.0010820723 0.0007669974
000070 ef 08 c0 ba 9e b8 eb b9 11 47 60 b8 db df 05 bb
       -0.00146511 -0.00044960243 -5.3471947e-05 -0.0020427618
000080 88 3c 39 ba 3e 00 1a 3a 0c 72 01 bb b5 0a b9 37
       -0.000706621 0.000587467 -0.0019751815 2.2058704e-05
000090 89 c9 a1 39 5a 6a c7 b9 3b 9c 0a b9 af 95 c9 39
       0.00030858468 -0.00038035476 -0.00013218906 0.0003844923
0000a0 59 ad 41 ba 14 3f 28 3a 01 3b 94 ba 99 86 34 b9
       -0.00073881965 0.0006418091 -0.0011309088 -0.00017216279
0000b0 43 53 0d 39 1c 8f a4 b9 dc 8c 17 39 53 7c 66 39
       0.00013477825 -0.00031387142 0.00014452956 0.00021980824
0000c0 d4 33 84 ba bb 21 4b 3a 4a f7 dc 39 b4 ad 12 3a
       -0.0010086247 0.00077488617 0.00042145915 0.0005595342
0000d0 6c ee e2 b9 fe 0f 24 3a 77 c2 06 ba f2 0a b9 39
       -0.00043283717 0.00062584865 -0.0005140672 0.00035294105
0000e0 34 db 6b 3a 4a 71 3b ba 6a 12 ec 39 7c 42 83 37
       0.00089972024 -0.0007150365 0.00045027147 1.5647376e-05
0000f0 81 03 bf 39 c7 db 10 37 97 8c 30 3a 44 d9 8c b9
       0.0003643297 8.63424e-06 0.00067348167 -0.00026864756
000100 f2 89 9d b9 ab d4 31 ba a7 bc 13 39 3d 5c c6 39
       -0.0003004815 -0.0006783704 0.00014089291 0.00037834226
000110 7e 69 b0 ba fa d7 b4 b9 f8 98 59 ba a6 53 6a ba
       -0.0013459173 -0.0003449319 -0.0008300687 -0.0008938856
000120 35 b0 5c 38 1c 76 1a 38 54 b2 19 39 b7 fc a4 39
       5.2616193e-05 3.682646e-05 0.0001465765 0.00031468805
000130 39 cb 67 3a 0e 03 62 ba 6a 87 8c 3a 56 d4 98 39
       0.0008842233 -0.0008621671 0.0010721509 0.00029149902
000140 f7 b1 0f ba fb 09 69 3a 6e 91 4e 3a e4 1d 95 39
       -0.0005481536 0.0008889732 0.0007879947 0.00028441765
000150 cc 64 f2 b9 44 34 1c 3a 31 be d4 38 37 fa e2 3a
       -0.00046232936 0.0005958716 0.00010144374 0.0017317001
000160 1f 22 99 3a 47 28 6b 39 14 9c 8a 39 62 69 12 ba
       0.0011683143 0.00022426351 0.00026437698 -0.0005585161
000170 d2 44 b5 39 82 75 0c ba 96 af 6d 39 82 3b e1 b8
       0.00034574285 -0.0005358086 0.00022667492 -0.0001073992
000180 45 8c 37 bb 52 37 f1 b9 f9 f4 a2 3a 07 79 e4 3a
       -0.002800719 -0.0004600832 0.0012432627 0.0017431088
000190 d4 49 87 39 c9 00 c4 ba 3e e4 3c ba 90 5f c2 3a
       0.00025804213 -0.0014953847 -0.00072056416 0.0014829505
0001a0 b4 81 05 3b c1 37 6a ba ca f6 b9 39 f0 30 3f ba
       0.0020371499 -0.00089346996 0.00035469822 -0.0007293364
0001b0 e9 c3 39 ba 64 6d b0 b9 81 32 99 37 e8 6b 05 3b
       -0.0007086383 -0.00033650838 1.8262539e-05 0.0020358507
0001c0 43 75 d7 3a 76 e9 49 3a 04 1e 04 bb d8 75 c1 ba
       0.0016438145 0.000770233 -0.0020159492 -0.0014759852
0001d0 76 31 94 ba df 8a ec 3a 9a 71 98 ba 4c b0 cc b9
       -0.0011306244 0.0018046758 -0.0011630536 -0.00039041264
0001e0 04 cc c3 3a 09 8c 3f 3a 45 7b 55 3a 9a ca 4f 3a
       0.0014938121 0.00073069386 0.0008143674 0.00079266133
0001f0 02 f9 8a ba 2f 6a f9 35 be c3 c7 b9 4a 0d 05 bb
       -0.0010602775 1.8582849e-06 -0.00038102077 -0.002030211
000200 c2 22 1f bb 46 5c 0c 3b ea 51 48 bb d7 c3 1c 3a
       -0.0024282192 0.0021417304 -0.0030566403 0.000598011
000210 a7 a7 9a ba 78 52 48 38 2d 2c 5d bb 0c a8 dd b9
       -0.0011799232 4.776052e-05 -0.0033748255 -0.0004227761
000220 e1 55 2a bb 82 ea b0 b8 bc 8f c8 ba 3d 29 dd b9
       -0.002599113 -8.4360145e-05 -0.0015301625 -0.0004218313
000230 38 f4 20 bb a9 75 ad 39 5b 13 0e 3a 43 de cd 39
       -0.0024559628 0.00033084795 0.00054197543 0.00039266245
000240 24 a1 f0 ba de c2 65 3a 93 c0 61 3a fe a1 0f bb
       -0.001835857 0.0008764694 0.00086117646 -0.0021916623
000250 46 c2 c2 ba cb 2c 64 39 e2 43 96 b9 6e a1 ef ba
       -0.0014858923 0.00021760461 -0.00028660806 -0.0018282363
000260 64 29 9f 3a d0 8e 19 3b ee ec b7 3a 4f 67 f8 3a
       0.0012143073 0.002343107 0.0014032403 0.0018951687
000270 e1 23 1b b9 6e df 34 ba d6 5e 80 ba 33 6a 84 ba
       -0.00014795318 -0.00068997487 -0.0009793888 -0.0010102451
000280 17 de ad ba d9 8a d9 3a 4c 72 83 3a 11 da c6 39
       -0.001326504 0.0016597166 0.001002857 0.00037927975
000290 51 ea 06 3a b0 c6 76 3a b0 51 87 bb 5b c6 2a bb
       0.000514661 0.0009413762 -0.004129611 -0.002605817
0002a0 55 6d 30 3a b6 df 18 ba 9c f5 ec 39 08 f9 dc 39
       0.0006730159 -0.00058316754 0.0004519642 0.00042147213
0002b0 9f 1e aa b9 cd b1 28 ba 69 1d 82 39 1b 37 80 39
       -0.0003244774 -0.0006435186 0.00024817445 0.0002445512
0002c0 4a 6e fc ba 32 fe 89 ba 1a 63 1e 38 c6 9f 3c 3b
       -0.0019258943 -0.0010528027 3.776243e-05 0.0028781756
0002d0 0e bb 60 ba 30 68 cc ba f4 07 b8 b9 0e 59 f4 39
       -0.0008572795 -0.0015595015 -0.0003510114 0.00046605658
0002e0 04 6a c4 ba 98 fd 91 3a 68 3f 92 ba 0d 7e 71 ba
       -0.0014985208 0.0011138199 -0.0011157813 -0.00092122034
0002f0 7f a6 89 ba dd 44 a6 37 aa 67 90 3a 60 a7 be b9
       -0.001050189 1.9820809e-05 0.0011017222 -0.00036364328
000300 12 4d 65 3a 3a 47 ce ba 1f e8 3b 3b 21 f5 87 ba
       0.0008747141 -0.001573778 0.002867229 -0.0010372737
000310 45 36 4e 3b 0c 78 bd 3a 91 7e 8d bb e6 e8 07 bb
       0.0031465453 0.0014455332 -0.0043180664 -0.0020738184
000320 12 60 93 ba 46 f6 de ba cb 18 57 3b 8c 7e b2 bb
       -0.0011243841 -0.0017010651 0.0032821174 -0.0054472145
000330 83 39 db ba 6b 93 44 ba 50 5f 06 3a 32 17 d2 3b
       -0.0016725514 -0.00074987736 0.0005125897 0.0064114565
000340 2b 45 e9 b9 67 b1 31 bb 5b 42 d2 b8 87 bb a1 bb
       -0.00044492757 -0.0027113797 -0.0001002594 -0.004935685
000350 50 fd c5 39 3f 9a b8 3a 9c ee 85 bb 94 e4 da 3a
       0.000377635 0.0014084055 -0.0040872823 0.0016700202
000360 59 16 3a b9 8c b0 12 bb f1 fc c1 b9 b9 8f 46 bb
       -0.00017746667 -0.0022383062 -0.00037000285 -0.0030298068
000370 29 07 49 bb 21 d7 c9 3a 1c 3b 2d 3b 78 3b e3 bb
       -0.0030674434 0.0015399196 0.0026432937 -0.0069345795
000380 fd 7e 81 ba 10 a3 02 ba 38 f6 be bb 2b ee 5f 3b
       -0.0009879764 -0.00049834047 -0.0058276914 0.0034169059
000390 bb 7b 76 3a 6c ce 48 3b 98 9f fe 39 cf be 17 3b
       0.00094025926 0.0030640615 0.00048565562 0.0023154502
0003a0 f3 a8 37 3a ca 57 c5 bb 9e ad d8 3a ab 93 e4 3a
       0.00070060714 -0.006022428 0.0016531234 0.0017439028
0003b0 99 89 2e ba dc 47 27 bb ea d2 09 ba 0f 4f d4 ba
       -0.0006658077 -0.002552501 -0.0005257564 -0.0016197878
0003c0 ff 53 11 ba 1c 5c 7d b8 29 e9 8e ba 3f 3f 3f 3b
       -0.00055438274 -6.0405684e-05 -0.0010903227 0.0029181985
0003d0 b1 10 9e b9 8c 40 35 ba 0c ee 9b 3a 59 44 ba bb
       -0.00030148544 -0.000691422 0.0011896505 -0.005684417
0003e0 4f 5e 17 3b 45 ed 23 39 cd a0 00 bb 9c 4d cd 3b
       0.0023096984 0.00015633281 -0.0019627095 0.0062653553
0003f0 28 ef 2d bb ba fd 47 bb a9 80 91 39 9b fe d0 ba
       -0.0026540253 -0.0030516223 0.00027752414 -0.0015945019

rnn.weight_hh_l1 f4 [384, 96]
000000 98 33 90 b9 54 8f 31 ba 56 8d ae 3a ce 5a 05 ba
       -0.0002750426 -0.0006773372 0.0013317268 -0.00050870783
000010 94 e6 ea b9 ac 19 21 3a 98 7f a5 ba fc 1c f9 39
       -0.00044803752 0.0006145488 -0.0012626527 0.00047514576
000020 dd fc e6 38 98 eb cb b9 d3 ba 5c b9 44 67 7f 3a
       0.00011014354 -0.00038894708 -0.00021050432 0.0009742866
000030 66 45 ec b8 04 3a 05 3a 33 c8 26 ba f7 40 02 3a
       -0.000112662834 0.00050821924 -0.00063622295 0.0004968787
000040 42 28 1d ba 04 1f 3b b8 61 f0 60 ba f3 01 f8 39
       -0.00059950736 -4.461316e-05 -0.0008580741 0.00047303698
000050 66 3a f4 b9 38 66 1e 39 a3 79 43 3a 6c d5 88 ba
       -0.00046582817 0.00015106134 0.0007456785 -0.0010439581
000060 ab 6e 07 ba 71 48 ef 39 e8 af db 39 7b b0 b4 39
       -0.0005166332 0.00045639605 0.00041901995 0.00034463764
000070 12 f5 72 39 93 2f 8f 39 7e 43 6b 3a 51 1f 85 38
       0.00023170214 0.0002731053 0.00089745957 6.347767e-05
000080 fd 2b 1b b9 7e db 72 39 02 3c a3 39 42 17 c0 39
       -0.00014798339 0.00023160686 0.00031134492 0.00036638422
000090 05 89 a7 39 e0 20 17 3a 92 dd 5e 3a 09 ba 5a ba
       0.0003195481 0.00057650916 0.00085016445 -0.00083437614
0000a0 c6 9b 12 ba 71 b8 90 b9 21 f4 66 b9 6f d5 a7 39
       -0.000559267 -0.0002760324 -0.00022025454 0.00032011743
0000b0 82 14 8d 3a ae 3a 8a ba 28 78 ca b8 de a3 2f b9
       0.0010763558 -0.0010546052 -9.6544914e-05 -0.00016750346
0000c0 10 6d f1 39 9c ad 2c 3a a3 0c 5d ba 28 fe 23 39
       0.0004604836 0.0006587149 -0.0008432364 0.00015639572
0000d0 57 f3 dc 39 df d0 97 b9 87 33 db 39 48 70 07 39
       0.00042142972 -0.00028956585 0.00041809326 0.00012916431
0000e0 6f 38 2b ba 57 61 2f b9 b7 c6 22 ba 34 c6 f4 b8
       -0.00065315416 -0.00016725562 -0.00062094204 -0.00011671745
0000f0 9b 68 b5 b9 83 d5 69 ba 3a e1 4c 3a 58 77 2f ba
       -0.00034600947 -0.00089200604 0.0007815544 -0.0006693504
000100 ab a9 67 3a 0a 0c de 39 70 39 9f b8 a9 ab 80 ba
       0.0008837233 0.0004235211 -7.5924094e-05 -0.0009816784
000110 f5 11 b7 38 d8 f2 4e 38 43 3b 1e b9 0e 8c 09 ba
       8.729465e-05 4.9340393e-05 -0.00015090131 -0.0005247005
000120 f0 d0 af 39 c6 89 7a 39 5d 34 13 ba ca 7e 3d b9
       0.00033534272 0.00023893183 -0.0005615408 -0.00018071677
000130 51 ba dc 38 54 51 84 39 f2 f1 88 3a 7b 68 e3 b8
       0.000105251216 0.00025237596 0.0010448082 -0.000108436645
000140 f6 9e 9f b9 a3 bb b3 b9 72 11 bb 39 03 48 18 ba
       -0.00030445278 -0.0003428134 0.00035680417 -0.00058090704
000150 8d 8c 5d ba 10 e2 c4 39 9c d3 47 3a ba e6 8e 39
       -0.00084514247 0.00037552463 0.000762278 0.00027256255
000160 d0 28 8a 39 bf ba 88 39 41 bc 2a ba 1f 6d 28 3a
       0.0002635182 0.00026079078 -0.00065130374 0.0006424952
000170 59 e6 0f ba 58 fa f4 ba bb f7 1e b9 df 15 14 3a
       -0.00054893416 -0.0018690331 -0.00015160341 0.0005649011
000180 8e 0e a3 ba 75 96 aa ba 21 8a 92 3a 13 8e c2 ba
       -0.0012440251 -0.001301481 0.0011180082 -0.0014843367
000190 5b 02 30 ba 57 7f 8e 3a 4a fb 1b ba 62 b3 66 3a
       -0.0006714218 0.001087169 -0.0005950226 0.0008800534
0001a0 03 ab 9a ba 20 8d 83 ba b0 46 4a ba 60 fd b8 3a
       -0.0011800233 -0.0010036565 -0.0007716222 0.0014113598
0001b0 fb 42 92 ba 5c 0a 65 3a 7b 22 b5 ba db 49 ae 3a
       -0.0011158878 0.00087372004 -0.001381948 0.0013297157
0001c0 45 a1 91 ba b5 1d 9a ba 10 20 56 ba 33 6e fd 39
       -0.0011110684 -0.0011758121 -0.000816823 0.00048338025
0001d0 03 eb 57 ba e2 76 91 3a bf 17 cc 3a 50 09 cc ba
       -0.00082366186 0.0011098052 0.0015571042 -0.001556674
0001e0 35 cd 01 ba 92 98 96 3a 84 a6 7a 3a b7 c3 67 3a
       -0.00049515377 0.0011489561 0.0009561556 0.00088411145
0001f0 06 8c 67 3a f7 d2 83 39 17 a6 96 3a 16 9b be 3a
       0.0008832816 0.00025143448 0.001149359 0.0014542069
000200 73 bf c3 ba e0 54 6e 3a fa 80 4b 3a 54 e8 6b 3a
       -0.0014934376 0.0009091627 0.00077630545 0.0008999158
000210 17 a0 ec 3a cb 29 d7 3a 8a 7e 0f 3a d3 85 52 ba
       0.0018053082 0.0016415654 0.0005473873 -0.00080308056
000220 37 48 8e ba 64 dd 92 ba 4c 96 a2 ba c2 11 9d 39
       -0.0010855262 -0.0011204896 -0.0012404411 0.00029958604
000230 bc fc 90 39 43 8c ab ba 71 a6 e8 b9 9e 68 a4 3a
       0.00027654122 -0.0013088066 -0.00044374497 0.0012543385
000240 6f a0 a5 3a 05 60 2f 3a 2b 6a c3 ba 06 a9 9d 3a
       0.0012636314 0.0006690028 -0.001490896 0.0012028522
000250 c0 c1 cc 3a 2c eb 09 ba 18 4c 26 39 9b fd b3 39
       0.0015621707 -0.00052611786 0.00015859341 0.0003433049
000260 79 ec c0 b9 73 a7 37 ba 77 00 86 ba dd d0 a0 ba
       -0.0003679728 -0.0007005848 -0.0010223527 -0.0012269277
000270 b1 26 78 ba a7 f2 26 b9 30 40 5c 39 8d a4 0d ba
       -0.00094662147 -0.00015921389 0.00021004747 -0.0005403243
000280 94 16 08 3a 2c e8 4f 3a b2 53 c8 ba d7 ff 5a ba
       0.00051913527 0.00079310196 -0.0015283732 -0.0008354163
000290 89 e2 97 3a 14 28 33 3a 8e a2 9c 3a 17 ec a7 ba
       0.0011587898 0.000683428 0.00119503 -0.0012811449
0002a0 6a a4 34 3a 9b a7 02 3b 6d bb 68 ba 56 c2 5c ba
       0.00068909547 0.0019936326 -0.0008878026 -0.00084212923
0002b0 a8 f1 d0 ba 26 ac be 3a e6 0c af 3a d2 47 85 ba
       -0.001594116 0.0014547154 0.0013355284 -0.0010168499
0002c0 4d 79 65 ba b2 3e f6 ba 07 f8 79 3a 4a 04 80 ba
       -0.0008753732 -0.0018786995 0.0009535555 -0.0009766903
0002d0 d1 31 4f ba bb df a9 3a 5b 30 a0 3a f0 6f 9d 3a
       -0.00079038466 0.0012960354 0.0012221442 0.0012011509
0002e0 57 cb 28 ba 88 d0 b8 3a 54 0b 62 ba 8a 3d f7 39
       -0.00064389914 0.0014100233 -0.0008622904 0.0004715736
0002f0 b3 50 f0 ba b2 8d ee ba da 17 7f ba f2 07 3e 3a
       -0.0018334597 -0.0018200187 -0.0009731032 0.0007249109
000300 9b 0d a8 39 a4 6c 35 39 68 fb 2e bb c8 f8 3e 3a
       0.00032053594 0.00017301977 -0.0026700143 0.0007284996
000310 d7 af 81 3a f9 a1 cb b9 d7 78 96 3a 39 b1 d8 ba
       0.0009894323 -0.00038839856 0.0011480105 -0.0016532309
000320 1a 43 1d ba 64 b6 2c 3a 5c 43 fc 38 a1 df ad ba
       -0.00059990736 0.00065884576 0.00012028843 -0.0013265499
000330 6e 27 ef b7 4e 95 52 ba c3 3f b8 39 a1 3b ee 39
       -2.8509381e-05 -0.00080331124 0.0003514272 0.00045439324
000340 2e 8f 43 b8 9a d5 19 39 87 5d f5 3a 62 0b f5 b9
       -4.662497e-05 0.0001467079 0.001871989 -0.00046738522
000350 7b 1f 09 3a 4a e0 51 39 c3 1b 86 ba 79 e3 7c 3a
       0.0005230826 0.00020015347 -0.0010231662 0.0009646933
000360 b9 83 0d 39 a3 98 9a b9 51 7a 22 ba 8b fb 05 b9
       0.00013495878 -0.00029486892 -0.0006198036 -0.00012777575
000370 dd 2b 78 b8 c6 68 1d ba 60 1e aa b9 17 ed df 39
       -5.916866e-05 -0.0006004687 -0.00032447558 0.0004271052
000380 01 8c 2a ba 81 1e 70 37 1a 09 43 ba b6 88 88 ba
       -0.00065058476 1.4312217e-05 -0.0007440016 -0.001041672
000390 12 9e 0f b9 2c bd 31 ba c9 56 e4 ba 6f de df 39
       -0.00013696429 -0.0006780203 -0.0017420884 0.000426996
0003a0 0b 10 51 3a 1b 43 2c ba b0 e3 c6 b9 4b 77 1b ba
       0.0007975108 -0.0006571279 -0.00037935143 -0.0005930557
0003b0 cc 33 06 bb 88 41 24 3a 9e 42 d9 39 46 99 8a 3a
       -0.002047765 0.00062658684 0.000414391 0.0010574243
0003c0 6b 18 00 b9 64 19 99 b9 6a ea 2d 3a aa 58 ab 39
       -0.00012216128 -0.00029201352 0.00066343567 0.00032681721
0003d0 36 60 46 ba bd ef 84 3a 7d ca 53 ba 67 1d f8 b7
       -0.0007567437 0.0010142248 -0.00080791843 -2.9577595e-05
0003e0 09 d6 73 3a 3c 4f 8d 39 0d 97 2a 3a e3 f5 7b 39
       0.0009301608 0.0002695265 0.00065074937 0.00024028825
0003f0 7e 22 cf 39 e4 25 04 3b 91 a9 c4 b9 1e d1 2e 3a
       0.00039507815 0.0020164186 -0.0003751037 0.0006668734
